models/house_price_model.pth (torch, 685764 bytes, 9 tensors)

fc1.weight f4 [1024, 5]
000000 13 e4 c9 be 7e 0a 3c be d8 03 71 be ec f4 30 bf
       -0.3943182 -0.18363377 -0.23536623 -0.6912372
000010 db f9 de 3c ba de 65 be d6 1e cf 3e 4a 64 3e 3f
       0.02721875 -0.22448245 0.40453213 0.7437178
000020 37 1e 8e 3e b5 75 80 3e 3d 7d 9f 3f e4 e3 6e 3b
       0.27757427 0.25089803 1.2460095 0.0036451751
000030 f2 79 07 3f da 58 52 be 3d 57 3b 3d 07 5c 96 be
       0.5292045 -0.20541707 0.045737494 -0.29367086
000040 84 90 71 3e 97 27 a3 3f a9 e4 88 3f 40 90 4f bf
       0.23590285 1.2746457 1.0694782 -0.81079483
000050 6f 0f 43 bd a4 07 fe bd 61 93 09 bd 00 5b e2 3d
       -0.04762214 -0.12403801 -0.033587817 0.11052513
000060 9b 0b 7f 3d 6f 4f 89 bd 9f 0e 1b 3f cb 87 91 3f
       0.062266927 -0.06704604 0.60569185 1.1369566
000070 40 f3 14 bf 9f 53 5b 3e c9 fe af 3f f3 b9 35 be
       -0.5818367 0.21418618 1.3749629 -0.17746715
000080 e0 52 70 3f ca cf 87 bd df de 80 3d e8 d8 a2 bf
       0.9387646 -0.066314295 0.06292509 -1.2722445
000090 13 e2 d5 3e 3b b4 a2 3f e3 cf 78 bf d1 2c 66 c0
       0.41774043 1.2711252 -0.9719221 -3.5964854
0000a0 62 15 1b 40 d3 8d d0 be 5c 52 42 bd 46 18 5c bd
       2.42318 -0.40733203 -0.047441825 -0.053734086
0000b0 3c cb 2c 3c e3 20 b5 3f 2d 22 e5 3c ad 04 ed 3e
       0.010546502 1.4150661 0.027970398 0.4629263
0000c0 5d 9d c9 3d 2c 38 d9 3e 3c 44 5b 3f 22 6a 35 3f
       0.09844468 0.42425668 0.8565099 0.7086507
0000d0 37 3b c0 be 31 56 14 bf 1a a0 d3 bf 80 2c 66 3f
       -0.37545177 -0.5794402 -1.6533234 0.8991165
0000e0 3d 80 22 bf 8b 11 56 3f a4 6e 28 3d 5a 2f b4 bc
       -0.63476926 0.8362052 0.04112114 -0.021995235
0000f0 1d 6a 51 bd 86 10 d6 3e a8 16 47 be 41 80 0c 3f
       -0.051126588 0.4180948 -0.19442236 0.548832
000100 90 ac e9 3e 7f 4e 90 bd 72 51 48 bd 94 81 26 bf
       0.45639467 -0.07046222 -0.048905797 -0.6504147
000110 83 18 7f 3f 9f 70 28 be 01 bf 74 be 75 ca da be
       0.99646777 -0.16449212 -0.23900987 -0.42732587
000120 24 ea 86 3f ac 07 72 be aa 6d 7d be 40 a3 b5 be
       1.0540204 -0.23635739 -0.24748865 -0.35476112
000130 f7 29 5b be c5 d6 c9 3e ba c7 09 3f 46 17 ff 3e
       -0.21402727 0.3942167 0.53820384 0.49822444
000140 a8 33 92 3f c5 23 bd 3e ea 1e fe 3e a7 ed 68 3f
       1.1422014 0.36941352 0.4963296 0.9098763
000150 0e 27 fd bc 32 c1 06 40 d1 6e ad be 33 84 19 bf
       -0.030902412 2.1055417 -0.3387361 -0.59967345
000160 db 8e 0f 3e e6 ee 69 bf f0 0c c2 be 9f da b2 be
       0.14019339 -0.91380155 -0.37900496 -0.3493242
000170 8b 6b 85 be 4a d0 0b be bf 6a 32 be 74 6c 06 3f
       -0.2605861 -0.13653675 -0.17423533 0.52509236
000180 55 bc a5 3e d2 0f 10 3f 40 57 f1 be 51 e2 5f 3d
       0.32370248 0.5627414 -0.4713688 0.05465919
000190 b7 64 de 3d 7f b8 a2 3e 21 51 50 3f e1 08 fc be
       0.108590536 0.31781384 0.8137379 -0.49225524
0001a0 83 d2 e2 3d a9 49 71 bd 97 21 a0 be 61 c1 9d be
       0.11075308 -0.05890814 -0.31275627 -0.308116
0001b0 db 74 fc be ad bc 09 be 4b ca 4a bd 50 2e 9f be
       -0.49307904 -0.1345088 -0.049509328 -0.3109002
0001c0 b6 83 f8 3d 17 bf e8 be 80 37 98 3e d6 79 98 be
       0.12134497 -0.4545829 0.29729843 -0.29780453
0001d0 37 fb 14 3f 88 93 a6 3f 13 83 8f 3f d6 96 73 3d
       0.58195823 1.3013773 1.1211876 0.05947002
0001e0 dd d0 26 40 45 3f d5 be 72 eb df bd 87 c8 50 bd
       2.606498 -0.41649833 -0.109335795 -0.050972488
0001f0 20 6a 86 be 96 4e a8 be 33 f1 c3 3e 8c a4 12 bf
       -0.26252842 -0.32872456 0.38269958 -0.5728233
000200 02 02 66 3f 74 7e 92 3e a1 b4 db bd 7a 09 4f 3f
       0.89846814 0.286121 -0.107278116 0.80873835
000210 5e a2 96 3f 7e 8f 5c bf 8b 38 91 3e 39 9f e8 3d
       1.17683 -0.8615645 0.2836345 0.11358494
000220 68 f4 bd be a7 87 42 be f5 2d 1b bf 28 0a c2 be
       -0.3710053 -0.1899706 -0.60617 -0.37898374
000230 32 bf 95 be d3 96 12 3f 7c 6f 5d 3f 48 4d e2 3f
       -0.29247433 0.5726139 0.86498237 1.7679834
000240 11 a4 46 3e e1 bd 60 3d 17 4e d7 3e 61 a1 37 3e
       0.19398524 0.054868583 0.42051765 0.17932655
000250 68 8f e5 3d 12 d5 67 bf 68 92 08 3e 2e f8 10 bf
       0.11208993 -0.90559494 0.133371 -0.5662869
000260 af b3 a4 bd 57 18 13 3f 6c 29 31 3f 64 30 04 be
       -0.080420844 0.57459015 0.6920383 -0.12909085
000270 eb f3 5e be b6 c3 d8 3e 97 60 f7 3e 93 08 1d bd
       -0.21772735 0.42336816 0.4831588 -0.038338255
000280 77 0a 03 40 a8 ba 18 be e7 a7 cb be 4b fb 10 3e
       2.0475137 -0.14914954 -0.39776537 0.1415836
000290 6b 21 ef be 09 ea 5e be 9a 2a 52 3f 6a 2e 8a 3f
       -0.46705183 -0.21768965 0.82096255 1.0795414
0002a0 5a 01 92 be 04 75 c5 3d 1d a8 b3 be cc 2b 99 be
       -0.28516656 0.096414596 -0.35089198 -0.29916227
0002b0 98 e5 ed bd d2 7f d7 be 73 15 25 bd 80 f0 ac be
       -0.11616057 -0.42089707 -0.04030366 -0.33777237
0002c0 e2 fe 24 3e 28 1d bc 3f 49 64 9b 3e df b8 8d 3c
       0.16112855 1.4696398 0.3034995 0.017300067
0002d0 52 67 0b 40 ee 43 9a be d0 82 1b 3e 7e 94 65 bd
       2.1781812 -0.3012995 0.1518662 -0.056049816
0002e0 5e 8c 95 3c 40 20 22 3f 5b 04 7a be ae 62 b2 3f
       0.018255409 0.6333046 -0.24415724 1.3936365
0002f0 d0 77 c9 3f 4a c2 1c bf 6d 3e 62 3f 83 85 04 be
       1.5739689 -0.6123396 0.88376504 -0.12941556
000300 68 52 91 3f b2 af c9 bc fb a6 be 3d d4 09 42 3c
       1.1353273 -0.02461991 0.09309193 0.0118431635
000310 d0 d9 8e 3e 91 0d 90 3f 66 a9 63 bf 3d b4 a7 3e
       0.27900553 1.125414 -0.88930357 0.32754698
000320 ee 0d b0 3b 5a 09 86 3e 0b bd 94 3f 4f 04 61 bf
       0.0053727543 0.2617901 1.1620191 -0.878972
000330 38 5e 16 3f c3 cc 34 bf 3f 0e 81 3e 6c 84 5f 3f
       0.58737516 -0.7062494 0.2520618 0.87311435
000340 98 16 e3 3d c0 57 bb be 65 b5 83 3f 21 60 51 be
       0.11088294 -0.36590385 1.0289732 -0.20446827
000350 19 76 2f 3e 35 f7 e6 3f 38 01 03 3e 7d 3f a2 be
       0.17134894 1.8044192 0.12793434 -0.31689063
000360 23 e7 a9 be a7 26 8b bf b9 29 25 bf ea 8d 88 bb
       -0.33184156 -1.0871171 -0.6451679 -0.004167308
000370 21 a8 14 bf a2 e5 23 3f 38 9d f1 3e 2d 97 4b 3f
       -0.58069044 0.64022267 0.4719026 0.7952755
000380 ed f1 18 3d 2d bc a4 be ca 00 44 3f c4 05 87 3f
       0.037340093 -0.32174817 0.76563704 1.0548635
000390 13 84 2c 3e 79 81 04 3e f4 b9 24 bf ed 48 b2 3e
       0.16847257 0.12940015 -0.6434624 0.34821263
0003a0 df a2 0e 3f 6e 73 ef be 1a 03 1b c0 bb 4b ac 3f
       0.5571727 -0.46767753 -2.4220643 1.3460611
0003b0 28 97 a3 be 97 60 c4 3d d1 01 cd 3f 9e 08 63 3e
       -0.3195126 0.095887356 1.6016179 0.22171256
0003c0 2b 03 bb bf 5c c0 2b 3f fa 38 42 3f 3b 80 df bd
       -1.4610342 0.6709039 0.7586819 -0.1091313
0003d0 51 46 1a c0 d1 a8 28 bc e3 0d fb 3e 94 1d 96 3f
       -2.4105418 -0.010294155 0.49034032 1.1727777
0003e0 c5 5a 7b 3f 43 91 b3 3d 61 9f d7 bc 2b a3 40 3f
       0.9818538 0.08767941 -0.026321115 0.75248975
0003f0 08 dd 96 3f 4c 0a be be dc f2 ac 3e ce 01 bd be
       1.1786203 -0.3711723 0.33779037 -0.3691544

fc1.bias f4 [1024]
000000 29 c9 89 3f 30 32 7e 3f 61 3d 95 3f e0 8a 4f 3f
       1.0764514 0.9929533 1.1659356 0.8107128
000010 14 5d 81 3f 35 87 88 3f fc 85 84 3f 38 c2 8c 3f
       1.010653 1.0666262 1.0353389 1.0996771
000020 55 51 5f 3f e1 59 8a 3f 4b 66 31 3d 2e e1 4d 3f
       0.8723348 1.0808679 0.043310445 0.8042172
000030 0a 15 58 3f ea 42 2b be 29 c6 b4 3f 4b 2f 06 3e
       0.84407103 -0.16724744 1.4122974 0.13103978
000040 be b7 68 3f 60 01 46 3f 5e f9 10 3e 31 9d 85 3f
       0.9090537 0.7734585 0.14157626 1.0438596
000050 be c4 85 3f 48 a7 1c 3f a6 d7 27 3f 0c 32 37 3f
       1.0450666 0.6119275 0.6556343 0.7156074
000060 8e c0 5c 3f 65 6e 94 3f 97 17 97 3f 8b 5a c3 3e
       0.86231315 1.159619 1.1804074 0.38155016
000070 25 47 a4 3f e9 8d b9 3f 83 a3 6b 3e 8c f6 8b 3f
       1.2834212 1.4496433 0.23011594 1.0934615
000080 24 d7 43 3f 0a 3c bb 3f 3a ab 7a 3f df 01 95 3f
       0.76500154 1.4627697 0.9791752 1.1641196
000090 c9 27 68 3f 6e cf aa be 71 1c 75 3f ac 91 23 3f
       0.9068571 -0.3336138 0.95746523 0.6389415
0000a0 bb e1 23 3f c6 93 29 3f ce 77 6d 3f fc d5 83 3f
       0.6401631 0.6624111 0.9276093 1.0299678
0000b0 3b 96 71 3f ba 01 98 3f 8f bf 0c 3f cb 0f 69 3f
       0.9436986 1.1875527 0.54979795 0.91039723
0000c0 65 1a 02 3e 73 4d 49 3f 72 8d 2e 3f 5a 2f 02 3f
       0.12705381 0.78633803 0.6818458 0.508535
0000d0 90 84 80 3f d8 f8 2d 3f a9 4c b4 3d f9 ac 7c 3f
       1.0040455 0.6795783 0.08803684 0.98701435
0000e0 3a f0 56 be e4 2f 85 3f 71 0b b7 3f 34 9b 10 3f
       -0.20990077 1.040524 1.4300367 0.5648682
0000f0 66 9c 79 3f fd c5 27 3d bb f2 69 3f e4 62 21 3f
       0.9750427 0.0409603 0.91386 0.6304152
000100 12 e7 1a 3f 6b a5 8a 3f 0d a6 4d 3f be 7d 2b 3f
       0.60508835 1.0831732 0.803315 0.6698874
000110 12 24 7c 3f b5 94 81 3f 61 c8 ba 3f 09 4c 8f 3f
       0.9849254 1.0123507 1.4592401 1.1195079
000120 9e 49 8c 3f 18 5e 4d 3f 36 27 90 3f a2 4a ae 3f
       1.0959966 0.802217 1.1261966 1.3616526
000130 6a e7 b8 3d 0a ce 2a bd 8b 54 30 3f 7b 8e 6c 3f
       0.09028514 -0.0417004 0.68879 0.9240491
000140 64 f5 27 3f 25 cb de bd 19 31 ec 3e 5d b9 5a 3f
       0.6560881 -0.108785905 0.4613121 0.8543909
000150 7f 33 82 3f 0c 24 fb 3e bf 65 dc 3e 97 e2 27 3e
       1.0171965 0.4905094 0.43046376 0.16395031
000160 72 16 2b 3f 6a b0 52 3f 27 86 4b 3f 56 3e da 3e
       0.66831124 0.82300436 0.79501575 0.42625684
000170 b3 15 70 3f b9 bf 88 3f 18 aa 89 3f 5f 81 0a 3f
       0.9378311 1.0683509 1.0755033 0.54103655
000180 75 7a a2 3f e3 cb 9b bf b4 e7 53 3f 88 82 56 3f
       1.2693621 -1.2171596 0.82775426 0.83792925
000190 93 3d 27 3e f4 e5 4a 3f 1e 68 4d 3f d1 0d 31 3d
       0.16332082 0.7925713 0.80236995 0.043226067
0001a0 41 0f eb 3d 1b 80 8b 3f 6d c5 49 3f 13 94 75 3f
       0.11477519 1.089847 0.7881687 0.9592907
0001b0 67 26 04 3f 2c 32 e2 3d 7a a3 ab 3c f8 8e b2 3f
       0.516211 0.11044726 0.020951975 1.3949881
0001c0 6d 1e 90 3f 70 2b 89 3f 4e 53 7f 3f a7 11 80 3f
       1.1259285 1.0716381 0.9973649 1.0005387
0001d0 5c 03 0e 3f 46 f2 a2 3d 9b 94 1d 3f bc 1c 1f 3f
       0.55473876 0.07956366 0.6155488 0.6215322
0001e0 74 bd 10 3f 4d 13 80 3f 8f 94 ca 3e e8 d8 8a 3f
       0.5653908 1.000589 0.39566466 1.0847445
0001f0 65 58 5a 3f da 01 a8 3f 24 3a 67 3f a5 f1 29 3f
       0.8529113 1.3125565 0.9032309 0.66384345
000200 d2 31 5f 3f d3 e6 06 3f 68 43 8c 3f 5a 53 bd 3f
       0.87185395 0.5269596 1.0958071 1.4791062
000210 e8 bd 8e 3f a5 59 6a 3f c4 55 7b 3f 67 2a 2d 3f
       1.1151705 0.91543037 0.9817774 0.67642826
000220 37 2f 3f 3f 5c d4 47 3f ab d0 54 3f f9 12 5f 3f
       0.7468142 0.7805841 0.831309 0.87138325
000230 06 3c c7 3f b4 5e 95 3f 86 72 8d 3f f1 44 61 3f
       1.5565193 1.1669526 1.1050575 0.8799582
000240 6e ea 7e 3f d0 7a 81 3f 59 98 7e 3e 1b b9 14 3f
       0.9957646 1.0115604 0.24862804 0.5809495
000250 8c 25 8b 3f f5 fa 15 3f fe ae 79 3f 21 f0 46 3f
       1.0870833 0.58586055 0.9753264 0.7771016
000260 36 2c 3f 3f f6 1b 03 3f c6 74 88 3f 9b 25 55 3f
       0.74676836 0.5121454 1.0660636 0.83260506
000270 43 28 cd 3e 3e be 04 3f 66 24 8c 3f 70 12 36 3f
       0.4006978 0.51852787 1.0948608 0.71121883
000280 36 b5 44 3f 44 87 7b 3f ee fc 5d 3f 0b 7f 84 3f
       0.76839006 0.98253274 0.86714065 1.035127
000290 8e 17 5a 3f e0 83 c6 3f 90 a9 8d 3d 8f c3 57 3f
       0.8519219 1.5508995 0.06917107 0.84282774
0002a0 b8 c6 e8 3e bd 91 01 3f 1c 50 7e 3f a4 34 89 3f
       0.4546411 0.50613004 0.9934099 1.071919
0002b0 11 7b 71 3f 2a bd 3f 3f 0b 62 21 3f 2a 24 69 3f
       0.9432841 0.74898016 0.63040227 0.91070807
0002c0 e2 5f f4 3e 46 28 84 3f 07 27 25 3f 4c 01 fa 3e
       0.47729403 1.032479 0.64512676 0.48829114
0002d0 ff a2 57 3f 00 50 12 be bd 4b 28 3f 3c 1b c4 3f
       0.8423309 -0.1428833 0.6574057 1.5320811
0002e0 25 a7 4b 3f e1 e2 5c 3f 77 16 6b 3f 5e 9a 8b 3f
       0.7955192 0.8628369 0.91831154 1.0906484
0002f0 49 33 45 3f e4 48 a7 3f 0d da fc bf 3c b0 5b 3f
       0.7703138 1.306912 -1.9754044 0.8581579
000300 a0 7a 59 3f 6f d6 1a be 4e e9 24 3f 7d 89 ae 3f
       0.84952736 -0.15120862 0.64418495 1.3635708
000310 f9 b1 3d 3e e9 c4 53 3f 15 91 ae 3f 4a f5 1a 3f
       0.18524922 0.82722336 1.3638026 0.6053053
000320 40 62 51 3f 77 d3 62 3e 3c 5f dc 3e 25 36 37 3f
       0.8179054 0.2215098 0.43041408 0.71566993
000330 c8 34 ba be 4e 89 14 3e 0b 53 af 3f fb d8 a5 3f
       -0.36368394 0.14505503 1.3697218 1.2956842
000340 46 1b cf 3e d9 87 74 3f d1 37 6e 3f 49 cc 92 3f
       0.40450495 0.9551979 0.9305392 1.1468593
000350 3f dc 97 3d 8f b7 ac 3f bb 60 4e 3f d2 8d 5d 3e
       0.074150555 1.3493518 0.8061635 0.21636131
000360 e0 99 7a 3f 04 6f 58 3f 13 48 e8 3d ac 4a 2f bc
       0.97891045 0.84544396 0.11341872 -0.0106989555
000370 29 d1 b8 be d1 94 57 3f 7c b7 19 3f c1 82 72 3f
       -0.36097077 0.8421145 0.600456 0.94730765
000380 f4 89 75 3f 03 0a 13 3f 30 ac 5f 3f 41 e7 e2 3e
       0.95913625 0.5743715 0.8737211 0.44317058
000390 97 d3 60 3f 74 56 35 3f da 5a 13 3e 31 b3 13 c0
       0.8782286 0.7083504 0.14390126 -2.307812
0003a0 d3 dd 1e 3f f9 dd 5a 3e ce ad a1 3f 99 b4 b5 3f
       0.62057227 0.21373738 1.2631166 1.4195739
0003b0 06 f3 37 3f 4a 6c 0b 3f b5 f1 63 3f be 33 0c 3e
       0.718552 0.5446211 0.8904069 0.13691613
0003c0 d6 6e 4a 3f 65 de 05 3f eb ca 51 3f 87 ae 63 3f
       0.7907537 0.5229247 0.81950253 0.8893818
0003d0 e1 cf b0 3f 34 7a 42 bf 12 a7 47 3f db 0c 94 3f
       1.381344 -0.7596772 0.77989304 1.1566423
0003e0 01 79 25 3f 6f 64 52 3f 5e dc 60 3f 29 e4 29 3f
       0.6463776 0.821845 0.87836254 0.6636377
0003f0 68 f4 7a 3f c4 c1 7b 3f da 9d 3a 3d c9 70 6e 3f
       0.98029184 0.9834254 0.045560695 0.93140846

fc2.weight f4 [128, 1024]
000000 db 55 53 bd b0 df 9b bd 36 75 f3 bc 9b d5 46 bd
       -0.05159555 -0.076110244 -0.029718976 -0.048543554
000010 b7 25 a4 bd 54 74 16 bd 06 56 48 bd 41 9f 8f bd
       -0.08015006 -0.036732033 -0.048910163 -0.07012797
000020 fb 38 59 bd e2 0b 67 bd 05 c8 9f bd a2 62 5e bd
       -0.053032856 -0.056407817 -0.078018226 -0.054293282
000030 d0 9a 75 bd a6 04 64 bd b1 c7 0c bd 7b 3d 52 bd
       -0.059962094 -0.055668496 -0.034370128 -0.051328164
000040 c6 58 25 bd 38 13 a5 bd bd 7c 10 bd 87 42 a9 bd
       -0.040367864 -0.08060306 -0.03527521 -0.08264642
000050 80 50 f5 bc bb 2a 7f bd 33 81 40 bd f2 73 85 bd
       -0.029945612 -0.06229661 -0.046998214 -0.065162554
000060 1c bb ad bd 28 b8 f4 bc 52 0b 84 bd 6f 1b 11 bd
       -0.08482954 -0.029872969 -0.06447472 -0.035426553
000070 7d f7 68 bd b2 aa 06 bd ec 0d 7a bd c3 ec 2a bd
       -0.05687665 -0.03287763 -0.061048433 -0.0417297
000080 3a 44 87 bd 75 73 4c bd 61 e1 a9 bd 9a 90 36 bd
       -0.0660481 -0.049914796 -0.08294941 -0.044571497
000090 fb 89 a7 bd 61 b4 79 bd 4e 24 24 bd 27 26 94 bd
       -0.081806146 -0.06096304 -0.040073685 -0.072338395
0000a0 a5 c7 60 bd 58 49 0e bd 7e 17 7b bd 20 4d 74 bd
       -0.054877896 -0.034737915 -0.0613017 -0.059643865
0000b0 f0 a2 e9 bc d2 fe 4b bd e3 66 54 bd b9 32 22 bd
       -0.028520077 -0.049803562 -0.051855933 -0.039599154
0000c0 c0 b1 a7 bd d7 f6 8c bd 91 b7 46 bd 19 12 3d bd
       -0.081882 -0.068830185 -0.048514906 -0.046159837
0000d0 5d 8d eb bc 1d 02 06 bd de 50 9f bd 8c a6 91 bd
       -0.02875393 -0.03271686 -0.07779096 -0.071118444
0000e0 92 b9 31 bd c1 be 8e bd 27 d4 2b bd 85 e9 a3 bd
       -0.043389864 -0.06969977 -0.04195037 -0.08003525
0000f0 34 61 9e bd 44 3d 21 bd 6b 76 2b bd 77 52 93 bd
       -0.07733384 -0.039365068 -0.04186098 -0.07193463
000100 c9 db 88 bd 72 5c 61 bd 8d b5 95 bd 22 ca 72 bd
       -0.06682546 -0.055019803 -0.07310019 -0.0592748
000110 28 8d e9 bc 16 a2 3e bd d2 5a 98 bd 9a 03 a0 bd
       -0.028509691 -0.046541296 -0.074391976 -0.07813187
000120 fe 40 a4 bd 12 aa 81 bd 4e 5c 1e bd 1a 6d 85 bd
       -0.08020209 -0.063312665 -0.038662247 -0.0651495
000130 3e b7 4a bd e7 67 09 bd 30 bf 4c bd e9 23 3a bd
       -0.04949116 -0.033546355 -0.049987018 -0.045444403
000140 f0 48 89 bd b1 7c a8 bd fe 78 3b bd 6d 8e b0 bd
       -0.06703365 -0.08226908 -0.045769684 -0.086209156
000150 ff 41 54 bd 09 21 7c bd 46 84 73 bd f2 c0 98 bd
       -0.05182075 -0.061554942 -0.059452318 -0.074586764
000160 3d eb 85 bd 88 80 f7 bc 52 56 4c bd 9e ef 25 bd
       -0.06539009 -0.030212656 -0.04988701 -0.04051172
000170 fb 61 9e bd 59 4d 18 bd 90 14 91 bd 1c f3 3b bd
       -0.07733532 -0.03718314 -0.07084 -0.045886144
000180 17 19 05 bd 81 97 8f bd 91 d4 94 bd ac d1 91 bd
       -0.03249463 -0.07011319 -0.07267106 -0.0712007
000190 e7 d0 3d bd c9 ea a0 bd 85 47 3b bd 83 2a ae bd
       -0.046341803 -0.07857282 -0.045722503 -0.08504202
0001a0 80 5f f6 bc b5 cb b0 bd 09 21 5e bd fd e7 2e bd
       -0.030074835 -0.08632604 -0.054230724 -0.04270171
0001b0 d6 a7 30 bd 94 14 a3 bd e8 cb 8d bd 92 ea 45 bd
       -0.04312881 -0.07962909 -0.06923658 -0.048319407
0001c0 ef 19 9f bd ff cb 61 bd 2c 9f 1e bd fe 1d 07 bd
       -0.07768618 -0.055126186 -0.038726017 -0.032987587
0001d0 0b a2 4f bd b7 74 e6 bc 23 69 4a bd bc 9c b0 bd
       -0.050691646 -0.028131826 -0.049416672 -0.08623645
0001e0 b7 8b 98 bd 76 af ac bd 38 77 09 bd 09 07 98 bd
       -0.074485235 -0.08431904 -0.03356096 -0.07423217
0001f0 d6 b8 89 bd a1 01 a2 bd 7c f5 8f bd 9c c9 99 bd
       -0.06724708 -0.07910467 -0.07029244 -0.07509157
000200 bb a6 98 bd 52 c8 a5 bd 07 d6 a6 bd b3 c4 5a bd
       -0.07453676 -0.08094849 -0.08146291 -0.053410243
000210 38 a0 07 bd 49 ec 2f bd 4b 03 85 bd a2 db 7d bd
       -0.03311178 -0.04294995 -0.06494769 -0.061977036
000220 2f 58 6e bd b4 bc b0 bd 4e bd 18 bd f5 43 28 bd
       -0.058189567 -0.08629742 -0.03728991 -0.041080434
000230 c3 25 a5 bd 9d 5b 52 bd 20 fe 81 bd 26 8a 80 bd
       -0.08063843 -0.0513569 -0.063472986 -0.0627635
000240 5c d5 a8 bd 7f f1 07 bd 62 70 0e bd a7 03 6d bd
       -0.0824382 -0.033189293 -0.034775145 -0.05786481
000250 dc d8 2b bd d2 74 55 bd 24 a3 3e bd 08 4e ed bc
       -0.04195486 -0.05211336 -0.0465423 -0.028967872
000260 83 e5 a3 bd b4 51 98 bd 88 38 9b bd 63 2b 64 bd
       -0.0800276 -0.07437459 -0.07579142 -0.05570544
000270 d8 34 85 bd 31 de 8e bd 1c ee 79 bd 0f 31 06 bd
       -0.0650422 -0.069759734 -0.061018094 -0.03276163
000280 0a fb e1 bc dc d7 7b bd f0 9a 8f bd 5c 75 b1 bd
       -0.027585525 -0.061485156 -0.07011974 -0.08664963
000290 a6 6b 4d bd 2f 0e f3 bc fa d1 ed bc d6 ec 55 bd
       -0.05015149 -0.02966985 -0.029030789 -0.052227817
0002a0 b3 54 8f bd 56 6d 11 bd b7 de 7e bd ed 16 75 bd
       -0.06998577 -0.03550466 -0.062224116 -0.059836317
0002b0 3e aa 5e bd e0 39 fe bc 7c f4 e0 bc e9 64 79 bd
       -0.054361574 -0.031033456 -0.02746033 -0.06088725
0002c0 69 c9 34 bd 66 96 87 bd f1 4f ad bd 0e 77 a0 bd
       -0.044137392 -0.06620483 -0.08462513 -0.07835208
0002d0 f5 0f 0c bd a9 c9 98 bd 86 e8 61 bd 65 18 15 bd
       -0.034194905 -0.074603386 -0.055153392 -0.036400218
0002e0 fc ac 35 bd 15 3a 05 bd be 19 78 bd 98 bd 87 bd
       -0.044354424 -0.032526094 -0.060571425 -0.06627959
0002f0 25 63 06 bd 67 f9 a2 bd d2 ba 21 bd 78 1a ad bd
       -0.032809395 -0.07957726 -0.039484806 -0.08452314
000300 0f be a0 bd 70 3b 28 bd 38 27 b1 bd 51 f0 b0 bd
       -0.07848751 -0.04107231 -0.086500585 -0.08639587
000310 d2 6f 46 bd 58 32 06 bd eb 34 7b bd fa 7f 4b bd
       -0.048446484 -0.032762855 -0.061329763 -0.049682595
000320 e9 4d 9e bd a1 00 76 bd 6c 8d e7 bc e6 36 8a bd
       -0.07729704 -0.060059194 -0.028265677 -0.06748752
000330 2a 29 8e bd fa 62 b0 bd 0a 1d 7d bd 15 56 87 bd
       -0.06941445 -0.08612628 -0.061795272 -0.06608216
000340 9a 24 9c bd 21 77 63 bd f9 3d 59 bd a2 96 81 bd
       -0.07624169 -0.055533532 -0.053037617 -0.06327559
000350 8e 98 a1 bd 93 a4 8a bd 46 6a ae bd b2 a2 89 bd
       -0.078904256 -0.06769671 -0.08516364 -0.06720485
000360 9c 76 90 bd 2c db af bd 47 34 4d bd ed 01 05 bd
       -0.07053873 -0.085867256 -0.050098684 -0.03247254
000370 d1 92 ec bc ef 8f 3d bd 41 ff 25 bd ec 2f 1e bd
       -0.028878601 -0.046279844 -0.040526632 -0.03861992
000380 3d dd 74 bd 86 6d 9e bd 77 34 8d bd 99 d0 02 bd
       -0.0597813 -0.07735734 -0.068947725 -0.031937215
000390 fe 09 47 bd db cb 1e bd 2b 82 9a bd 5e 4a aa bd
       -0.048593514 -0.03876863 -0.07544359 -0.08314966
0003a0 16 2f 50 bd cf d6 7a bd 7f 63 a1 bd 22 92 1c bd
       -0.050826155 -0.061240014 -0.078803055 -0.0382253
0003b0 f1 07 5c bd 54 41 94 bd cc 87 29 bd 85 5e 14 bd
       -0.05371851 -0.07239023 -0.04138927 -0.036222953
0003c0 23 9a 9f bd 28 36 7e bd 03 83 0f bd 5c 74 17 bd
       -0.07793071 -0.062063366 -0.035037052 -0.036976203
0003d0 5a 62 8d bd a5 4a 94 bd 15 7f 03 bd f7 15 f7 bc
       -0.06903525 -0.072408 -0.032103617 -0.03016184
0003e0 4d e0 b1 bd 83 8d 96 bd 61 f1 68 bd 93 92 59 bd
       -0.0868536 -0.0735121 -0.056870822 -0.0531183
0003f0 c3 c6 40 bd 12 e1 80 bd af b1 8e bd e0 7d 9b bd
       -0.047064554 -0.06292929 -0.06967484 -0.07592368

fc2.bias f4 [128]
000000 ad 77 78 bd a8 02 31 3f c0 64 2c 3f b4 42 ca bd
       -0.060661007 0.6914468 0.6734123 -0.09876004
000010 62 aa 35 3f 55 b3 30 3f f1 f2 28 3f ac ef 32 3f
       0.7096311 0.6902364 0.659957 0.6989696
000020 64 65 2d 3f 13 b3 87 bd 84 3b 33 3f 2d 07 34 3f
       0.67732835 -0.066259526 0.7001269 0.7032345
000030 b3 09 24 3f 4a 3a 57 bd 62 f0 32 3f e6 93 2a bd
       0.640773 -0.052545823 0.69898045 -0.041644953
000040 7c 2e 31 3f 4f 8d 25 3f 5e 01 32 3f 04 4c 2c 3f
       0.69211555 0.64668745 0.69533336 0.6730349
000050 80 89 f9 bc bb 63 35 3f a6 01 26 3f 5c 0f 0e bd
       -0.030461073 0.708553 0.64846265 -0.034682617
000060 c7 d0 32 3f 6d a9 33 3f 45 8b 33 3f 8a d6 13 bd
       0.6984982 0.701804 0.70134383 -0.036093272
000070 8a 0e 13 bd 88 7e 2b 3f f9 62 7d bd 01 b4 33 bd
       -0.035902537 0.66989946 -0.061861966 -0.043872837
000080 40 de 2c 3f 71 81 2a 3f 04 4f a6 bd 4d e4 30 3f
       0.67526627 0.6660376 -0.0812054 0.6909836
000090 df cd 34 3f d4 5b 34 3f 15 bd 94 bd cc ea fa bc
       0.70626634 0.7045262 -0.07262627 -0.030629538
0000a0 5a c3 26 3f cd 3f 23 3f 30 83 af bd f6 36 22 bd
       0.6514183 0.6376923 -0.08569944 -0.039603196
0000b0 29 36 2d 3f 0c da 2c 3f f9 7b 9f bd 9b c3 98 bd
       0.67660767 0.67520213 -0.07787318 -0.07459184
0000c0 49 d3 08 bd e1 00 20 3f 01 10 52 bd 98 2f ab bd
       -0.033404622 0.6250134 -0.051284794 -0.08358687
0000d0 5a 81 1c 3f 27 64 36 3f 95 ca 2b 3f 8d db 2d 3f
       0.61134875 0.7124657 0.6710599 0.6791313
0000e0 07 61 2b 3f ee 29 2d 3f 0f 29 31 3f 4f 5a 3d bd
       0.66944927 0.67642105 0.69203275 -0.046228703
0000f0 1e 38 a7 bd 88 99 2e 3f 4e f0 84 bd 15 a5 28 3f
       -0.081650004 0.6820302 -0.06491147 0.65876895
000100 9c d7 36 3f 67 3a 35 3f 7e 41 49 bd 2d 46 1c 3f
       0.71422744 0.7079224 -0.049134724 0.6104458
000110 9c 5f 8f bd 29 c6 65 bd 19 4b fa 3f 8e e6 2e 3f
       -0.07000658 -0.056097183 1.9554168 0.6832055
000120 e9 5b 24 3f 7d e2 2b 3f 07 8a 1b bd 87 93 5d bd
       0.64202744 0.6714247 -0.03797343 -0.05409577
000130 52 01 73 bd 13 d3 2c 3f bf bc 29 3f 6b 49 37 bd
       -0.05932743 0.67509574 0.6630363 -0.04474775
000140 51 de 36 3f a6 67 2a 3f 9f 9a 98 bd 08 6f 1e 3f
       0.7143298 0.66564405 -0.07451367 0.6188817
000150 76 b5 28 3f e2 11 0e bd 0b fd 32 3f d2 de 1c 3f
       0.6590189 -0.034685023 0.6991736 0.61277497
000160 17 39 a7 bd dd f0 21 bd bd 80 34 3f dc 1a 2d 3f
       -0.08165186 -0.039536346 0.7050894 0.6761911
000170 b1 77 97 bc 56 b0 8f bd c3 5f 28 3f 4b 8b 8c 3c
       -0.01848969 -0.07016055 0.6577112 0.017156264
000180 22 47 9f bd 2a 99 34 3f 3c 3c ae bd b5 65 23 3f
       -0.077772394 0.7054621 -0.085075825 0.6382707
000190 a6 92 fa bc 6e 27 9d bd b7 72 34 bd 28 0e 84 bd
       -0.030587506 -0.07673536 -0.044054713 -0.064480126
0001a0 90 74 f2 bc 54 8e 2e 3f a7 b1 22 bd 50 d6 28 3f
       -0.029596597 0.68185925 -0.039720204 0.65952015
0001b0 ac f1 e3 3c 73 07 37 3f e1 84 35 3f cc c4 83 bd
       0.027825199 0.7149574 0.7090588 -0.064340204
0001c0 cf e9 2d 3f 6d 0c 29 3f b2 8c 8a bd c8 53 33 3f
       0.6793489 0.66034585 -0.06765117 0.70049715
0001d0 58 1d a3 bd c4 57 1e bd 27 9f 2d 3f 16 9a 2d 3f
       -0.07964581 -0.03865792 0.6782097 0.6781324
0001e0 43 70 bc bf d1 ff 7d bd e0 9f 2e 3f 00 a6 70 bd
       -1.472176 -0.062011544 0.682127 -0.05875206
0001f0 70 bc 32 3f 2a 50 31 3f 25 6a 25 3f a7 b9 67 bd
       0.6981878 0.69262946 0.6461509 -0.056573536

fc3.weight f4 [128, 128]
000000 65 ae db 38 f6 cf 24 3f 26 8a 27 3f 12 fb a6 3d
       0.00010475217 0.64379823 0.6544517 0.081533566
000010 97 95 13 3f 5b 8c 23 3f 6b e3 29 3f 58 95 14 3f
       0.5765013 0.6388604 0.6636264 0.5804038
000020 ef f2 19 3f 8c 6f 25 3c 4a 3a 37 3f bf cf 1e 3f
       0.6013631 0.010097396 0.7157332 0.62035745
000030 b1 28 3a 3f bc 31 a4 3c 5b 3a 12 3f 77 74 b9 3d
       0.7271834 0.020043246 0.57120293 0.09055417
000040 58 e0 33 3f 75 8d 13 3f e7 57 2a 3f 97 c6 0c 3f
       0.70264196 0.5763772 0.6654038 0.54990524
000050 ae 36 a1 3d aa 07 18 3f ae a1 1e 3f 7a cd 0c 3d
       0.078717574 0.59386694 0.61965454 0.034375645
000060 b0 39 28 3f 59 29 0e 3f b0 1b 35 3f 8c a5 aa 3d
       0.65713024 0.5553184 0.7074537 0.08332357
000070 c3 38 c6 3c 7f 49 2c 3f e1 bb fd 3d ff 87 2a 3d
       0.024196988 0.67299646 0.12389351 0.041633602
000080 dc 29 26 3f 8c bc 19 3f f0 09 0d bc a6 dc 1a 3f
       0.6490762 0.60053325 -0.008608326 0.6049293
000090 a4 08 12 3f 35 a6 18 3f f0 36 8f 3c 73 37 dc 3d
       0.57044435 0.5962861 0.01748225 0.107527636
0000a0 42 75 2a 3f 97 0b 17 3f 44 5c 2d 3d 96 0c a3 3d
       0.6658517 0.5900206 0.04232432 0.07961385
0000b0 23 c5 34 3f ca e0 20 3f a8 aa 8f bc ea ee c4 3d
       0.70613307 0.62843 -0.01753743 0.09615882
0000c0 c2 53 4d bb 27 1c 3d 3f c8 21 f8 3d f3 6e 34 bc
       -0.003133044 0.7387108 0.12115818 -0.0110127805
0000d0 81 64 14 3f 95 61 21 3f c9 e5 37 3f 3e fb 1f 3f
       0.57965857 0.63039523 0.71835 0.6249274
0000e0 66 db 17 3f 50 56 1e 3f 5d 17 25 3f b3 d2 a2 bc
       0.5931915 0.6185045 0.64488775 -0.01987586
0000f0 3d ae 86 bb 0e 11 2b 3f b5 1b c9 3d 5e 64 1d 3f
       -0.0041101263 0.668229 0.09819738 0.61481273
000100 8f ca 32 3f 32 2f 23 3f c7 bd c8 3c 03 7f 26 3f
       0.6984033 0.6374389 0.024504555 0.65037555
000110 22 3b 1c 3c 8a 1b ea 3d db ab 97 c0 78 c9 33 3f
       0.009535583 0.11431034 -4.7397285 0.7022929
000120 2e 75 16 3f 63 53 37 3f 6d 02 35 3d 97 1c d5 3d
       0.5877255 0.71611613 0.044191767 0.10405844
000130 ef 8b 70 3d 60 28 21 3f 07 88 1a 3f 5e f4 0c 3b
       0.0587272 0.6295223 0.6036381 0.002150796
000140 67 31 36 3f 55 75 21 3f c8 82 e0 3d 6e fa 28 3f
       0.7116913 0.6306966 0.109624445 0.66007125
000150 74 09 19 3f d2 e1 82 3d e3 52 31 3f b4 9a 12 3f
       0.5978005 0.06390728 0.692671 0.5726731
000160 e7 14 c2 3d f6 34 ac 3d a6 d0 21 3f 49 5e 26 3f
       0.09476643 0.08408539 0.63209 0.6498762
000170 80 3d 07 3d ea 5d 9d 3d 37 3b 33 3f 52 2e 1c bd
       0.033017635 0.07683928 0.7001223 -0.038130112
000180 8a 05 00 3e 57 2b 1b 3f 7d d0 c8 3d 05 5d 41 3f
       0.12502113 0.60613006 0.09805391 0.7553256
000190 ba df 63 3d b5 06 67 3d d0 1c 10 3e 36 5c de 3d
       0.055633284 0.05640288 0.14073491 0.108574316
0001a0 d3 f4 fd 3d 0f 34 16 3f 8e 90 ff bb 85 aa 20 3f
       0.12400212 0.58673185 -0.0077992147 0.6276019
0001b0 c5 17 0c 3d b5 2f 2f 3f 76 49 3c 3f 7b 29 e6 3d
       0.034202356 0.6843217 0.7354959 0.112383805
0001c0 21 62 2d 3f 7f 24 14 3f e5 22 a9 3d 4c c7 19 3f
       0.6772786 0.5786819 0.08258609 0.6006973
0001d0 2e c8 09 3e 92 ca 45 3d d9 fc 23 3f fb 50 21 3f
       0.13455269 0.04828889 0.6405769 0.6301419
0001e0 10 5b b4 c0 d5 97 f5 bc e7 dc 2e 3f 02 3c be 3d
       -5.636116 -0.029979626 0.6830582 0.09288789
0001f0 26 23 36 3f 34 d7 0e 3f a4 92 3a 3f 82 b8 0a 3d
       0.7114738 0.55797124 0.72880006 0.033867367
000200 47 2f a5 3d 4b 4f 19 3f 41 c6 29 3f b2 17 4a 3b
       0.08065658 0.59886616 0.66318136 0.0030836877
000210 95 9d 29 3f 99 87 0f 3f 25 89 12 3f db 4f 22 3f
       0.66256076 0.5606628 0.57240516 0.634031
000220 68 2e 26 3f 4c f6 a8 3d 5f b6 1f 3f bf 50 26 3f
       0.6491456 0.082501024 0.6238765 0.6496696
000230 58 a2 13 3f 0f 98 6c 3d e5 c3 17 3f 0d 1a 03 3d
       0.5766959 0.057762202 0.59283286 0.032007266
000240 b1 c6 22 3f 6d 9f 35 3f ba db 2a 3f 39 c6 0d 3f
       0.6358443 0.7094639 0.66741526 0.5538059
000250 6e b8 b3 3d dc a9 14 3f 3e 62 14 3f 9c 54 99 bc
       0.087754115 0.58071685 0.57962406 -0.018717103
000260 c0 27 34 3f 6b 4c 33 3f e8 64 24 3f bc aa 6b 39
       0.70373154 0.7003848 0.6421647 0.0002247495
000270 b8 a4 d1 3d 78 1c 1b 3f e7 6e 0a 3e 82 e6 a7 3d
       0.10236496 0.60590315 0.13518868 0.08198263
000280 5d c8 24 3f 05 f2 24 3f 45 76 85 3d 04 71 36 3f
       0.6436823 0.6443179 0.06516699 0.712662
000290 d5 db 2d 3f 63 1f 31 3f 2e 27 c5 3d 78 bc 50 3d
       0.6791356 0.6918852 0.096266136 0.050960988
0002a0 7f 8f 1e 3f 6b 76 1c 3f ee 47 01 3d 4b b9 04 3c
       0.6193771 0.6111819 0.031562738 0.008100818
0002b0 51 c6 27 3f 1a f3 33 3f 22 0c 09 3d be b9 ca 3b
       0.6553698 0.7029282 0.033458836 0.006186693
0002c0 c7 e0 ca 3b 35 60 3f 3f fc c2 bd 3d 92 cb 4a bc
       0.0061913463 0.74756175 0.09265706 -0.0123776365
0002d0 9e 7a 0f 3f 3a 43 26 3f 6c 08 22 3f 77 73 16 3f
       0.56046474 0.6494633 0.632941 0.58769935
0002e0 1a 59 26 3f 99 06 20 3f 23 37 1e 3f dc df 96 3c
       0.6497971 0.6251007 0.6180288 0.018417291
0002f0 49 b4 ac 3d d9 38 19 3f 88 57 a3 3d 1c 2a 12 3f
       0.08432824 0.5985237 0.0797568 0.57095504
000300 fb d2 37 3f 98 af 0d 3f 0f 86 a4 bb 14 2d 12 3f
       0.71806306 0.5534606 -0.005020864 0.57100034
000310 f1 24 c6 3d d3 86 ff 3d bc 90 98 c0 8c 10 20 3f
       0.09675015 0.124768876 -4.767668 0.6252525
000320 13 e1 36 3f be 55 1d 3f a9 9f 86 3c 46 91 07 3e
       0.71437186 0.6145896 0.016433554 0.13239011
000330 07 29 87 3c ec b1 21 3f c6 ab 2a 3f e6 e2 0f 3e
       0.016499056 0.6316211 0.66668355 0.14051399
000340 89 a0 0e 3f bf 91 35 3f fd df ab 3b 9c 7e 11 3f
       0.5571371 0.70925516 0.0052452073 0.56833816
000350 e8 63 21 3f 9b d5 90 3c bc f5 2b 3f 48 14 2c 3f
       0.6304307 0.01767998 0.67171836 0.67218447
000360 7b db ba 3c 37 d7 cd 3d 49 7c 2b 3f 1b 0c 0e 3f
       0.022809735 0.100508146 0.6698652 0.5548722
000370 e9 76 c2 3b 82 c6 d9 bc e3 68 16 3f 74 3a 9d 3d
       0.0059345854 -0.026583914 0.58753794 0.07677165
000380 40 8d d2 3d cb c7 25 3f 1d 32 ba bc 86 c9 2d 3f
       0.102808475 0.64757985 -0.022728974 0.67885625
000390 08 eb 64 3c a1 46 d3 b9 fc 8e 60 bc 60 3d e8 3d
       0.013972051 -0.0004029768 -0.013705965 0.11339831
0003a0 aa 0e 46 bc dd 85 23 3f d8 38 4a bb 5a 29 2d 3f
       -0.012088457 0.63876134 -0.0030856635 0.6764122
0003b0 a5 a0 6d bd e8 e8 25 3f df 86 1f 3f a4 9c 11 3c
       -0.05801453 0.6480851 0.6231517 0.008887444
0003c0 3b 07 0e 3f 20 80 22 3f f0 2a 0a 3e 17 ca 21 3f
       0.5547978 0.63476753 0.13492942 0.6319899
0003d0 61 79 a9 3d 89 5e df 3c 28 a3 27 3f 4f 7e 35 3f
       0.08275104 0.027266758 0.6548333 0.70895857
0003e0 0c b2 b4 c0 2c 51 01 3e ac 3a 39 3f 03 92 91 bd
       -5.646734 0.12628621 0.7235515 -0.07107928
0003f0 97 96 13 3f 90 91 33 3f ea 31 2c 3f 18 9a b4 3c
       0.57651657 0.70143986 0.6726366 0.022046134

fc3.bias f4 [128]
000000 94 a1 37 3f e6 02 3c 3f ad 8d 19 bc b7 f9 c5 bc
       0.71730924 0.7344192 -0.009372157 -0.024166925
000010 41 d6 5f 3c bf df 9f 3a da 3e 32 3f 35 c5 2a 3f
       0.013661922 0.0012197419 0.69627154 0.66707164
000020 4d ee 3a 3c 18 d8 0a be 58 b4 6a 3d b1 e5 3c 3f
       0.011409354 -0.13558996 0.057300895 0.7378798
000030 9b 69 35 3f bc 7a b7 3b 5c 7c 36 3f 6b c1 24 3f
       0.70864266 0.005599348 0.7128351 0.6435763
000040 95 4b 03 be d0 45 0f 3c 72 c6 21 3f 2d 34 73 bd
       -0.12821801 0.008744672 0.6319343 -0.05937593
000050 c5 69 a2 bc ee 8a 89 3c 82 c8 23 3f 0b 49 1d 3f
       -0.019825825 0.01678988 0.63977826 0.6143958
000060 83 56 22 be 5a a0 23 3f be 99 1e 3f f9 33 35 3f
       -0.15853314 0.6391655 0.6195334 0.7078243
000070 a8 63 fe bd a3 1a 30 3f 92 6d 90 39 d3 fd 31 bd
       -0.12421352 0.68790644 0.00027547457 -0.043454956
000080 8c e3 ca ba 55 26 e2 bd 6a 2d d3 bc 4c b0 2e 3f
       -0.0015479191 -0.110424675 -0.025778491 0.6823776
000090 cb 03 db bd ad 72 fe 3d 09 5d 33 3f f2 7d 19 3f
       -0.10694083 0.124242164 0.70063835 0.599578
0000a0 5c 24 2e 3f 4d 11 a5 bd 0b 0a 43 3f 2f ea 40 3f
       0.6802423 -0.080599405 0.761872 0.75357336
0000b0 d2 8f 2b 3f 98 05 8f bd 1f af cc bc 92 99 d1 bc
       0.6701633 -0.06983489 -0.024985848 -0.025585923
0000c0 2f 07 b4 bc a3 9b ce 3b 5b e0 40 bd e7 aa 38 3f
       -0.021976082 0.0063051744 -0.047088962 0.72135776
0000d0 e1 05 33 3f f7 44 ea bd a0 5b 4c ba e9 62 0b 3e
       0.69930845 -0.11438935 -0.00077956356 0.1361195
0000e0 c5 5b 04 be f5 a3 39 3f 52 6e 0c 3f 49 05 80 bd
       -0.12925632 0.72515804 0.54855835 -0.06251008
0000f0 9f 99 28 3f ff c0 30 3f 2e aa 35 3f 54 d5 d0 bc
       0.6585941 0.6904449 0.709628 -0.025492348
000100 02 7b 0f 3b af 86 4f 3f d1 3f 2c 3f 4e 06 81 bd
       0.0021893387 0.81064886 0.67284876 -0.06300031
000110 82 7c 32 3f ea 63 c3 bd cf 7b ef bd f1 d4 61 bc
       0.69721234 -0.095405415 -0.116935365 -0.013783679
000120 f5 32 40 3f 79 4b a9 bd 9b be f8 bd 79 70 97 3d
       0.75077754 -0.082663484 -0.1214573 0.07394499
000130 f6 77 c5 bd f5 37 18 bd 5e ba 35 3f 88 09 9a bd
       -0.09642021 -0.03716274 0.709875 -0.07521349
000140 36 1d b5 bd cb 93 87 3c cd 05 35 3f 6e eb ca 3c
       -0.08843462 0.016549965 0.70711976 0.024770465
000150 f0 9f 4e 3f 47 43 2a 3c c0 84 89 bd 74 d2 57 3c
       0.80712795 0.010392017 -0.06714773 0.0131727345
000160 2b e6 b6 3c f9 6d a6 bd e8 b0 4c 3f 64 f6 3a 3f
       0.02232655 -0.08126444 0.7995744 0.7303221
000170 74 2a 3b bd 4d 42 8b bb 11 82 a4 bd c5 9a 4a 3f
       -0.045694783 -0.004249847 -0.08032621 0.7914241
000180 38 db d0 bd 26 0c 88 bd da b0 0b be 74 8b c3 bc
       -0.10198063 -0.06642942 -0.13641682 -0.023870207
000190 51 42 81 bd 17 17 3f 3f c9 32 99 3c 0e a4 cb bc
       -0.06311477 0.7464461 0.018700974 -0.0248585
0001a0 5c 75 39 3f 4f a8 44 3f 59 4f d6 3c a6 c6 18 3f
       0.724447 0.7681932 0.026160883 0.59678113
0001b0 81 16 9a bd 6d d1 27 bd 66 d7 32 bc 3c f8 43 3f
       -0.075238235 -0.04097121 -0.010915613 0.7655065
0001c0 e0 2f 98 bc 0e cf 06 be 2a 0f 2d 3f a9 12 2d 3f
       -0.018577516 -0.13164923 0.67601264 0.676066
0001d0 4b 02 fe bc 26 35 8a 3c e8 96 3c 3f 9e 64 c5 3c
       -0.031006953 0.016871046 0.73667765 0.02409583
0001e0 3d 70 37 3f 4a cc d8 bd e5 e9 30 3f f3 a1 f4 bd
       0.7165564 -0.1058584 0.69106895 -0.11944952
0001f0 82 37 ae 3c 0e ba 97 bd 11 9c be bd cc 5e 45 3f
       0.021266703 -0.07408534 -0.09307111 0.77097774

fc4.weight f4 [128, 128]
000000 5c 25 9a bd 4a b6 ff bd d5 69 2d bd 33 32 97 3c
       -0.07526657 -0.12485941 -0.042337257 0.018456554
000010 08 ba 57 bd c5 07 94 3c ca cc d2 bc 84 2d 56 bd
       -0.052667648 0.018070111 -0.025732417 -0.0522895
000020 c3 2b 13 bd 22 44 90 3c 98 0c 65 bd 02 95 53 3b
       -0.035930406 0.017610613 -0.055920213 0.003228486
000030 b2 04 e3 bd 3b b2 6c 3c c8 98 c9 bd 34 7c e2 bd
       -0.1108488 0.01444679 -0.09843594 -0.11058846
000040 3a ad 17 bc 2e 35 76 3c 4b 22 0a be 32 3e 7e 3c
       -0.009257609 0.015027327 -0.13489644 0.015517758
000050 43 cb a0 bd c3 35 cf bc 6d 11 ab bd 18 12 a2 bb
       -0.07851269 -0.02529419 -0.08352933 -0.0049460046
000060 95 b8 0e bc cd 4a c5 3c ca 9e b7 3c d7 b6 75 bd
       -0.008711 0.02408352 0.022414584 -0.059988823
000070 07 81 1f bd 56 ed ce bd 60 6a 06 3d 2b 87 e4 bd
       -0.03894141 -0.10103862 0.03281629 -0.11158594
000080 f4 9c 66 3c 80 8e 89 3c da f4 70 bc 4c 60 10 be
       0.0140755065 0.016791582 -0.014706815 -0.14099234
000090 08 47 29 bd 13 83 9f bd ae b0 c3 3c d3 4f 6b bd
       -0.041327506 -0.07788672 0.023887958 -0.057449173
0000a0 da e2 3b bd 99 3e 81 3c 1f 14 59 bd 3d 2b a0 bd
       -0.04587064 0.01577692 -0.052997705 -0.07820747
0000b0 28 af 8d bd f2 f6 99 3c db ac e9 bd 97 d5 06 bd
       -0.06918174 0.01879451 -0.11409923 -0.03291854
0000c0 5e 4b 0f be 00 dc d1 3b ce ce 58 bd 30 03 5f bc
       -0.13993594 0.0064044 -0.0529316 -0.0136116
0000d0 08 78 d3 3c 98 fe a1 bd 1d e4 d6 bd d5 42 c7 bd
       0.025814071 -0.07909888 -0.10492728 -0.09729544
0000e0 fc ba ee bd d1 41 e5 bd aa d1 dc ba 36 c0 0d be
       -0.11656758 -0.11194194 -0.0016847153 -0.13842854
0000f0 18 66 03 be a3 b5 09 be 8d 0f ed bd f6 33 eb 3c
       -0.12831914 -0.13448195 -0.11575232 0.0287113
000100 33 c8 ae bd 63 dc 4c bd b2 18 a4 bd 3d 6c fe bc
       -0.08534279 -0.050014865 -0.08012523 -0.031057471
000110 ac e9 e6 bd 19 88 ac 3b 1c f7 16 3b 84 cd 87 3c
       -0.11275038 0.0052652475 0.0023035472 0.01657749
000120 20 b4 8a bd 2a a7 05 bd 73 6c d2 bd d7 c7 23 3a
       -0.06772637 -0.032630123 -0.10274591 0.0006247735
000130 e8 b2 b6 3c 6c 92 01 be 16 72 67 bc c6 cf 8c bb
       0.022302106 -0.12653512 -0.014126321 -0.0042972295
000140 06 77 02 bd 41 16 75 3c 51 8a f4 bd 91 ab d2 3a
       -0.03185179 0.014958919 -0.11940444 0.0016072859
000150 de 1d 00 be 74 d4 24 bd 7e 98 ce 3a fd ac af bd
       -0.12511393 -0.040241674 0.0015761999 -0.08577917
000160 dd 23 61 bd 72 97 c9 bb 84 39 1c 3c 71 ff 6e 3c
       -0.054965843 -0.006152087 0.009535197 0.014587269
000170 d8 2b 5d 3c d2 c9 ed bd c1 9a 28 bd 6b dc ab bd
       0.013499223 -0.1161076 -0.04116321 -0.08391651
000180 1a 93 fe bd 36 fb a9 bd a0 41 ea bc ba 23 01 bd
       -0.12430401 -0.08299868 -0.028595746 -0.031528212
000190 9e 31 0f bd 5e f8 9a bd 6b 3b 7b bd 66 b0 79 bd
       -0.034959428 -0.075669035 -0.061335962 -0.060959242
0001a0 25 23 92 bd e2 e8 dd bd cd b3 bc 3c d0 1b 9c 3d
       -0.071356095 -0.108354345 0.023034954 0.07622492
0001b0 96 9f 77 bd 99 94 b8 bd 35 31 3f bd 4a 8c 90 bd
       -0.060454927 -0.09012718 -0.046677787 -0.07058008
0001c0 a5 44 45 bd ad 2c 1a bd b9 ca c0 bc 1a 7e 07 be
       -0.048161168 -0.037640262 -0.023534166 -0.13231698
0001d0 20 c1 14 bd 55 50 15 3c ed 91 97 bc 0e 03 9e bd
       -0.03631699 0.009113391 -0.0185022 -0.077154264
0001e0 9a e8 a0 3c 60 48 0c be 15 3e e7 38 4f 05 75 3c
       0.019642163 -0.13699484 0.00011026502 0.014954879
0001f0 82 87 88 bd e5 55 ed ba 8d 70 8a bd 0e 8c a2 bd
       -0.06666471 -0.0018107264 -0.067597486 -0.079368696
000200 61 db 9b 3c 38 e1 42 3d ab 9d b0 bd e1 59 a5 bc
       0.019025506 0.047578067 -0.08623823 -0.02018446
000210 e3 94 08 be 35 d8 bb bd c1 26 36 bd 24 25 00 bd
       -0.13338046 -0.091720976 -0.044470552 -0.03128542
000220 13 e9 58 3d f7 5a f4 3c d4 8a 3a 3d 0f 74 34 bd
       0.052956652 0.029828532 0.045542553 -0.044055995
000230 4e 30 c4 bd 4b a9 8f bd ee 8b 88 bd fc 61 f4 bd
       -0.09579526 -0.07014712 -0.066673145 -0.119327515
000240 17 81 93 3d 83 81 b0 3c 36 fe 54 3d ed c1 e0 bd
       0.07202356 0.021546131 0.052000247 -0.109744884
000250 55 b8 ce bd c4 76 da 3c 68 e8 85 3d 2e f2 0f be
       -0.10093752 0.02666796 0.065384686 -0.14057228
000260 08 fc 7d 3d 01 7f 64 bd 56 c2 fc bd 08 a6 b3 3c
       0.062007934 -0.055785183 -0.12341754 0.021929756
000270 a9 23 83 bd 9a 66 12 3d 19 d1 de bc 15 63 3e bd
       -0.06403286 0.03574238 -0.027199315 -0.04648121
000280 53 cf 59 bd a7 f6 5b bd a6 7b ab bd a2 10 99 bc
       -0.053176235 -0.053702023 -0.083731934 -0.018684689
000290 2f 6a 65 3d d4 35 c0 bd 9b 10 79 bd 54 75 ed bd
       0.056009468 -0.09385267 -0.06080685 -0.11594644
0002a0 58 91 50 bd 3c 3f 48 bd 4b 4b a7 bd 49 c8 48 bd
       -0.05091986 -0.04888843 -0.08168658 -0.04901913
0002b0 be 64 a4 3d fb cb 5b bc 73 d2 9d 3d ba 5a 10 bb
       0.080270275 -0.013415332 0.07706156 -0.0022026733
0002c0 ae d0 0a bc 11 5b 6f bd f0 67 ae 3a a8 15 e2 bc
       -0.008472605 -0.058436457 0.0013306122 -0.027598217
0002d0 d3 b9 8f bd fd 92 a9 bd 24 ee e3 bd 30 6f 82 bd
       -0.07017865 -0.08279989 -0.11129406 -0.063688636
0002e0 86 26 a0 39 a6 87 88 bc eb 38 e7 bc 64 ec 3b bd
       0.0003054628 -0.016666245 -0.028225383 -0.045879737
0002f0 05 9f 84 bd 4e 7c 02 bd c4 cc 74 ba b0 7d 81 3d
       -0.06475643 -0.031856827 -0.0009338374 0.06322801
000300 4b 01 94 3c 1f f7 6a bd ee 05 1e bd b7 47 57 bd
       0.018067023 -0.05736458 -0.038579874 -0.052558627
000310 2c 3b 9a bd f4 8a 96 bd 08 ab 1a bd ed 54 21 3d
       -0.075308174 -0.07350722 -0.037760764 0.039387632
000320 02 15 f3 bd 76 8d 0e be 03 06 0a be 33 71 a9 3d
       -0.11869241 -0.1392115 -0.13478856 0.08273544
000330 de 47 ab 3d 84 2a 20 bd 6e a4 a9 bd 80 16 7f bc
       0.08363317 -0.039103046 -0.082833156 -0.015569329
000340 0b ed a6 bd ff 98 c8 ba b4 b0 9d bd 43 6f e9 bd
       -0.08150681 -0.0015304385 -0.07699719 -0.113981746
000350 91 e9 ad bd f0 87 6a bd 7a d4 cc 3c 05 92 c8 bd
       -0.08491815 -0.057258546 0.02500366 -0.09793476
000360 b8 04 02 be 0c 3c a4 ba b0 62 aa bd 76 b3 f7 bd
       -0.12697113 -0.0012530102 -0.083196044 -0.12094776
000370 d3 bd 42 bd c9 8e c0 bc b5 44 fe bc 56 19 74 3c
       -0.04754431 -0.023505585 -0.031038621 0.014898619
000380 13 20 5c bc d2 0c 48 3d 66 6e ab 3d 31 6e d3 3b
       -0.013435381 0.04884035 0.08370666 0.006452345
000390 6e e1 c7 bc 1c b8 54 bd 03 bf a7 bc 41 d3 b0 3c
       -0.024399485 -0.051933393 -0.020476824 0.021585109
0003a0 37 f0 82 bd a9 1b 66 bb 23 4a 74 bd c7 ce 9e bd
       -0.063934736 -0.0035111702 -0.059641015 -0.077542834
0003b0 d1 cc ed bd f9 cc 6d bc 73 8a 74 3c 7e 0e 92 bd
       -0.11611331 -0.014514201 0.014925587 -0.071316704
0003c0 07 1d 6d bd 86 49 24 bd 9f 56 01 3c a0 4b 80 bc
       -0.05788901 -0.04010918 0.007894187 -0.01566106
0003d0 84 bc ea bc 3e cc f8 3c 46 20 65 bd 67 cb 52 bd
       -0.028654344 0.030370828 -0.05593898 -0.05146351
0003e0 35 0c 8f bd fc 27 5f bd 1b 97 e2 bb 63 f1 67 bd
       -0.0698475 -0.05448149 -0.006914986 -0.05662669
0003f0 4d 9f 4f bd 4c a8 ac 3c 68 a0 7d 3c b3 c6 af 3c
       -0.05068903 0.021076344 0.015480138 0.021457052

fc4.bias f4 [128]
000000 e1 d2 c7 3b bc 51 8e bd 7d 94 36 3f 27 64 81 bc
       0.006098137 -0.06949183 0.71320325 -0.015794827
000010 54 ee bb bd f1 a0 2a bd 23 4a d8 3c e0 de 17 3f
       -0.09176317 -0.041657392 0.026402539 0.59324455
000020 11 25 22 3f f2 4b a4 bd c1 df f7 bd 37 1f 6f ba
       0.6333781 -0.08022298 -0.121032245 -0.0009121778
000030 c1 3b 90 bd a5 cf 35 3f fd 24 e7 bc 22 e8 78 bd
       -0.07042647 0.71019965 -0.02821588 -0.060768254
000040 c3 5a 3c 3f 4a e4 31 3f fe 3b ad bd 14 26 3f 3f
       0.7357599 0.69488966 -0.08458708 0.7466748
000050 18 ce 10 3f 16 85 20 3f 27 1b 04 be e2 b4 37 3f
       0.56564474 0.62703073 -0.12900983 0.7176038
000060 78 eb 7d bc 95 d5 5a bd 1a 77 14 3f 93 e3 16 3f
       -0.015498035 -0.053426344 0.57994235 0.58941
000070 32 00 20 3f d8 cc 8c bd 88 bf 2e 3f 75 c7 d9 bd
       0.625003 -0.06875008 0.68261003 -0.106337465
000080 74 e8 09 bd 71 9e 26 3f 74 26 12 be 23 3c 27 3f
       -0.03366895 0.6508551 -0.14272481 0.65326136
000090 2f d2 43 3f 07 2a 8c 3c d9 3c 3b 3f db 48 84 bd
       0.7649259 0.017109884 0.7313972 -0.064592086
0000a0 56 79 3a 3f 91 89 33 3f e3 87 09 bd 6d d5 14 bd
       0.72841394 0.70131785 -0.033576857 -0.03633635
0000b0 26 1c 2c bb b0 ac 39 3f e2 10 1f 3f 05 bc 89 3e
       -0.0026261895 0.72529125 0.62135136 0.2690126
0000c0 93 e4 ee bc be 83 47 bd 9e 91 ab bd 9a 31 44 3f
       -0.029161727 -0.048709624 -0.08377384 0.76638186
0000d0 4a 86 40 be 1e 01 a8 bd 3a f1 21 3f d3 52 cf 3c
       -0.18801227 -0.08203338 0.6325871 0.025308048
0000e0 48 90 3a 3f 7c 83 17 3f b7 39 36 3f 93 dd 1b 3f
       0.72876406 0.59185004 0.71181816 0.6088497
0000f0 99 44 b6 bc 3d 64 84 3c 5d 1d 2f 3f ea ad 31 bc
       -0.022249507 0.016161079 0.6840418 -0.010844687
000100 a6 ba c9 bd a9 8e 16 bd 1e ef 28 3f ed aa 5a bc
       -0.098500535 -0.036757145 0.65989864 -0.013346416
000110 a3 8d fe 3d c2 13 ed bc 44 a6 23 3f d7 01 c0 bd
       0.12429359 -0.028940085 0.63925576 -0.09375351
000120 e7 c8 33 3f 02 af 0b bd d6 e9 97 bd b8 f4 03 be
       0.7022843 -0.034102447 -0.074176475 -0.12886322
000130 be e6 08 bd d2 0a 83 bd 91 5d ab bd 71 e5 34 3f
       -0.033423178 -0.06398548 -0.08367456 0.706626
000140 40 e3 32 bd 17 ae 1d bd 19 2a 1f 3f d6 3e 59 bd
       -0.043673754 -0.038496103 0.6217361 -0.05303844
000150 5a d2 5f bd aa 93 96 3e 7e 2a 1c bd 59 67 31 3f
       -0.054643966 0.29409534 -0.03812646 0.6929832
000160 4b 3e 2e 3f 0a 55 3a 3f 18 52 91 bd c2 70 25 3f
       0.680638 0.7278601 -0.07095736 0.6462518
000170 00 ba 10 be 9a 2f 23 3f fc 00 3f 3f d6 7e 3d 3f
       -0.14133453 0.6374451 0.7461088 0.7402166
000180 a8 0e 3a 3f 91 68 24 3f 3d e7 d8 bb f8 0d 24 3f
       0.72678614 0.64222056 -0.0066193626 0.64083815
000190 2f 9f 2a 3f 8f 0c 01 be 5b 86 29 3f d7 06 20 3f
       0.66649145 -0.12602447 0.66220635 0.62510437
0001a0 b0 db 42 3f 09 ec 35 bd 2c a9 11 be 49 3a b8 ba
       0.76116467 -0.044414554 -0.1422469 -0.0014055456
0001b0 bc b7 33 bc cd 6c 68 bc 59 cc 85 bd 8d 10 82 3d
       -0.010969099 -0.014186096 -0.06533117 0.06350813
0001c0 5b a5 97 bc 93 89 25 3f 33 38 01 be 3f 6b 31 3f
       -0.018511465 0.64663047 -0.12619095 0.6930427
0001d0 b3 1b 6c bd 7f 2d 2f 3f ee 08 2d bb 00 93 2c 3f
       -0.057643604 0.68428797 -0.0026403028 0.67411804
0001e0 10 c8 3b 3f 67 c5 35 3f 31 d5 86 bd ae cb 32 3f
       0.73352146 0.7100434 -0.06583632 0.6984204
0001f0 23 6f 2e 3f 3e 60 1c 3f c4 a1 15 3f 23 88 2f 3f
       0.6813833 0.61084354 0.5844996 0.68567103

fc5.weight f4 [1, 128]
000000 34 32 a7 bc d4 14 40 bc 79 be 6a 3f 88 df d0 bc
       -0.02040968 -0.011723716 0.9169689 -0.025497213
000010 6b f4 1d 3d 1c 4e 5a bc 76 ae f9 3c 44 82 68 3f
       0.038563173 -0.013324287 0.030478697 0.9082377
000020 6b 94 6b 3f 0e b3 53 3d 64 cc 2f 3d 4b e7 77 3a
       0.9202334 0.05168443 0.04291953 0.00094567676
000030 b3 32 06 3d 18 8a 5c 3f 9c 44 6e bc 4a 7f 7d bc
       0.032763194 0.86148214 -0.014542725 -0.015472243
000040 36 af 63 3f b4 29 65 3f 75 0d 18 3d f2 a5 62 3f
       0.88939226 0.8951676 0.03712221 0.8853446
000050 db 95 3d 3e f8 58 6d 3f 0a 1c 8d bb 48 64 67 3f
       0.18514197 0.9271388 -0.004306321 0.9038739
000060 c0 23 d1 3c 1e e6 fa 3b b6 42 6c 3f 14 c9 68 3f
       0.025529742 0.0076568266 0.9228929 0.9093182
000070 42 66 58 3f 25 8d 71 bd ae 69 6a 3f 12 66 9f bc
       0.84531033 -0.058972497 0.91567504 -0.01945785
000080 81 71 b7 bc 98 b7 61 3f 65 e8 21 3c 77 fa 5a 3f
       -0.02239299 0.88170767 0.009882067 0.8553843
000090 a2 aa 5c 3f ba 93 06 3d 8c cb 67 3f ca 84 2c 3d
       0.86197865 0.032855727 0.9054496 0.042118825
0000a0 de 21 62 3f 38 d4 5e 3f 2d 04 c4 bb ae 62 53 3c
       0.8833293 0.8704257 -0.005981943 0.012901945
0000b0 22 da 10 3e e4 53 6b 3f 44 25 6c 3f b2 b7 46 3f
       0.14145711 0.9192488 0.9224436 0.77624047
0000c0 3e 64 9c 3c 12 e7 13 3d 6e f8 93 3d fe 1e 64 3f
       0.019090768 0.036109038 0.072251186 0.8910979
0000d0 72 dc 07 3e 3a 81 4d 3d a4 e5 5d 3f ca fa cd 3b
       0.13267687 0.05017207 0.8667853 0.006286
0000e0 39 cb 6a 3f f4 b0 66 3f f3 54 6b 3f 43 00 65 3f
       0.91716343 0.9011376 0.919265 0.89453524
0000f0 c3 d2 03 3f 88 c7 ca 3b 07 4e 67 3f 8b 1d 42 3c
       0.5149347 0.0061883368 0.90353435 0.011847864
000100 f1 e6 77 3c ae af a3 bd 15 ee 65 3f 0f 82 9c 3c
       0.015130744 -0.079924926 0.8981641 0.019104986
000110 ea b2 c5 3e 33 e6 5d 3d 73 45 67 3f 49 c3 d6 bc
       0.38613063 0.054174613 0.90340346 -0.026216166
000120 75 e8 67 3f 18 e5 7c bd 8f fe d4 39 b2 2c 21 bc
       0.90589076 -0.06174192 0.00040625452 -0.009837316
000130 03 73 cd 3c 28 db c8 3c 60 3c 04 3d 26 0c 5d 3f
       0.025079256 0.024518564 0.03228414 0.8634666
000140 aa 2a bc 3c 52 80 62 3d 71 56 67 3f 9e 08 8d 3c
       0.022969563 0.055298157 0.90366274 0.017216023
000150 3a 24 18 3d 17 47 5e 3f f5 87 03 3e 1f 19 1a 3f
       0.037143923 0.86827224 0.12844832 0.6019458
000160 81 f7 59 3f 11 91 66 3f 75 3f a7 bc fc 7c 5b 3f
       0.85143286 0.90065104 -0.020416 0.85737586
000170 c3 03 a2 bb 23 c7 5b 3f 69 11 65 3f 97 71 5d 3f
       -0.004944296 0.85850734 0.8947969 0.8650145
000180 9c 7f 60 3f 9a 52 60 3f f1 3e 2d 3d 86 0b 5a 3f
       0.87694716 0.8762604 0.042296354 0.85173833
000190 db 48 69 3f 30 f6 b5 bc 32 46 6e 3f fa 15 5b 3f
       0.91126794 -0.022212118 0.9307586 0.8558041
0001a0 ab 3c 5e 3f 22 1f e9 3c a1 00 4b 37 5f 22 cc 3b
       0.8681132 0.028457228 1.2099889e-05 0.0062296833
0001b0 e8 23 8c 3c cc fb 34 3c ce f7 e1 3e 25 60 53 3d
       0.017106965 0.011046361 0.44134372 0.051605362
0001c0 05 51 2f 3d 9b 3a 63 3f aa a8 b3 3c 32 a2 64 3f
       0.042801876 0.887613 0.021931011 0.8930999
0001d0 f7 78 fe ba 8c 54 6d 3f 2c 9e 37 3d f6 32 65 3f
       -0.0019414712 0.92707133 0.04482858 0.89530885
0001e0 5b 17 65 3f f0 f1 5c 3f 35 21 1c bb 0a 0d 6f 3f
       0.8948876 0.8630667 -0.0023823504 0.9337927
0001f0 a6 7d 60 3f 51 3b 5c 3f 19 be 63 3f 4f 02 62 3f
       0.87691724 0.8602801 0.8896194 0.8828477
